0
Pre-Processing CelebA
labels (127817, 10)
All classes percentages: [0.24165017172989509, 0.2910723925612399, 0.21396214900991262, 0.2533152866989524]
Initialized GrayVAE_Join model
Fitted model structure
EncConv64(
  (main): Sequential(
    (0): Conv2d(3, 128, kernel_size=(5, 5), stride=(2, 2))
    (1): BatchNorm2d(128, eps=1e-05, momentum=0.1, affine=True, track_running_stats=True)
    (2): ReLU(inplace=True)
    (3): Conv2d(128, 256, kernel_size=(5, 5), stride=(2, 2))
    (4): BatchNorm2d(256, eps=1e-05, momentum=0.1, affine=True, track_running_stats=True)
    (5): ReLU(inplace=True)
    (6): Conv2d(256, 512, kernel_size=(5, 5), stride=(2, 2))
    (7): BatchNorm2d(512, eps=1e-05, momentum=0.1, affine=True, track_running_stats=True)
    (8): ReLU(inplace=True)
    (9): Conv2d(512, 1024, kernel_size=(5, 5), stride=(2, 2))
    (10): BatchNorm2d(1024, eps=1e-05, momentum=0.1, affine=True, track_running_stats=True)
    (11): ReLU(inplace=True)
    (12): Flatten3D()
    (13): Linear(in_features=1024, out_features=128, bias=True)
  )
) SimpleConv64(
  (main): Sequential(
    (0): Unsqueeze3D()
    (1): Conv2d(64, 256, kernel_size=(1, 1), stride=(2, 2))
    (2): ReLU(inplace=True)
    (3): ConvTranspose2d(256, 256, kernel_size=(4, 4), stride=(2, 2), padding=(1, 1))
    (4): ReLU(inplace=True)
    (5): ConvTranspose2d(256, 128, kernel_size=(4, 4), stride=(2, 2))
    (6): ReLU(inplace=True)
    (7): ConvTranspose2d(128, 128, kernel_size=(4, 4), stride=(2, 2))
    (8): ReLU(inplace=True)
    (9): ConvTranspose2d(128, 64, kernel_size=(4, 4), stride=(2, 2))
    (10): ReLU(inplace=True)
    (11): ConvTranspose2d(64, 64, kernel_size=(4, 4), stride=(2, 2))
    (12): ReLU(inplace=True)
    (13): ConvTranspose2d(64, 3, kernel_size=(3, 3), stride=(1, 1))
  )
)
Linear(in_features=64, out_features=4, bias=True)
Test set len: 12804
33
samples_images_dict
dict_keys(['0', '1', '2', '3', '4', '5', '6', '7', '8', '9', '10', '11', '12', '13', '14', '15', '16', '17', '18', '19', '20', '21', '22', '23', '24', '25', '26', '27', '28', '29', '30', '31', '32'])
Saving gif
