0
Pre-Processing mpi3d_toy
labels (1036800, 7)
All classes percentages: [0.1697530864197531, 0.1388888888888889, 0.1388888888888889, 0.15123456790123457, 0.10185185185185185, 0.0787037037037037, 0.044753086419753084, 0.05092592592592592, 0.06944444444444445, 0.05555555555555555]
Shape of latents for mpi3d: (1036800, 21)
Dataset dimensions
829440 103680 103680
Initialized GrayVAE_Join model
Fitted model structure
PadlessGaussianConv64(
  (main): Sequential(
    (0): Conv2d(3, 32, kernel_size=(3, 3), stride=(2, 2))
    (1): ReLU(inplace=True)
    (2): Conv2d(32, 32, kernel_size=(3, 3), stride=(2, 2))
    (3): ReLU(inplace=True)
    (4): Conv2d(32, 64, kernel_size=(3, 3), stride=(2, 2))
    (5): ReLU(inplace=True)
    (6): Conv2d(64, 128, kernel_size=(3, 3), stride=(2, 2))
    (7): ReLU(inplace=True)
    (8): Conv2d(128, 256, kernel_size=(3, 3), stride=(2, 2))
    (9): ReLU(inplace=True)
    (10): Flatten3D()
    (11): Linear(in_features=256, out_features=42, bias=True)
  )
) SimpleConv64(
  (main): Sequential(
    (0): Unsqueeze3D()
    (1): Conv2d(21, 256, kernel_size=(1, 1), stride=(2, 2))
    (2): ReLU(inplace=True)
    (3): ConvTranspose2d(256, 256, kernel_size=(4, 4), stride=(2, 2), padding=(1, 1))
    (4): ReLU(inplace=True)
    (5): ConvTranspose2d(256, 128, kernel_size=(4, 4), stride=(2, 2))
    (6): ReLU(inplace=True)
    (7): ConvTranspose2d(128, 128, kernel_size=(4, 4), stride=(2, 2))
    (8): ReLU(inplace=True)
    (9): ConvTranspose2d(128, 64, kernel_size=(4, 4), stride=(2, 2))
    (10): ReLU(inplace=True)
    (11): ConvTranspose2d(64, 64, kernel_size=(4, 4), stride=(2, 2))
    (12): ReLU(inplace=True)
    (13): ConvTranspose2d(64, 3, kernel_size=(3, 3), stride=(1, 1))
  )
)
Linear(in_features=21, out_features=10, bias=True)
(20000, 21)
(20000, 21)
